models/etype/modele19400.pt (torch, 446909 bytes, 31 tensors)

weight f4 [32, 4, 3, 3]
-0.03506719 -0.9151941 1.8654568 -1.0497586 0.9499591 -0.85567296 -0.87147146 1.1853423
1.3293271 -1.2077048 -2.942962 3.1433785 -1.0574442 1.8394904 -2.4190419 0.7688335
-1.2056694 -1.6893761 2.7233868 -0.31025317 -1.4687775 -1.5819421 0.56661594 -3.1889098
2.2775674 -0.36691487 -3.109981 -0.10702357 -0.016402135 0.262525 0.22233038 0.67483395
0.23318532 -0.58657736 -0.9105606 -0.8219166 0.33930272 -0.6740836 -0.30588895 -3.3616166
-2.521539 0.14037955 1.9591048 0.5854903 -0.69433457 -1.5647129 -2.478415 -0.76889277
1.9779172 -2.9009292 -1.0313661 3.051158 -0.8329824 -0.60966986 2.882957 1.0266757
-0.15051286 -1.0355653 -1.7632754 0.2819319 0.5879029 1.1460639 -0.5159014 -0.38938516
1.0662373 -0.054961834 -1.0720004 0.56836414 -0.13847469 -0.27701083 0.8278003 0.057825085
0.19456203 2.1343486 0.09334106 2.0319085 -3.4831805 1.5198702 0.50306916 1.5357393
-0.54047924 -0.50084186 -1.0671474 -0.46866456 -1.0419179 3.742212 -0.8222669 0.30976632
-0.69784564 -0.3213225 1.8324349 0.64772326 -0.7696724 1.62833 2.2931523 0.89945567
0.59406215 2.7083633 -0.8838172 -0.5804303 0.30758986 -0.36640778 0.0511521 1.2905759
-0.10057071 -0.596785 -0.16520096 -0.5279591 1.1852603 -1.1509478 0.2914378 -1.0673937
0.3940717 1.203314 -0.65584797 -1.0803088 -0.13077681 -2.9305577 2.9647443 1.5139608
-4.23542 -4.818911 -0.4143998 -0.5176448 -0.3324776 0.16164744 -1.2486485 2.191347
1.2964296 -5.265855 -3.2952313 -0.67837864 -1.6611866 -0.828791 -1.3224475 -0.2289404
-0.026234625 -0.49321318 0.00365038 0.2818641 0.45313275 -0.3972468 -0.07123804 -0.3802088
1.8871907 1.4180894 -0.87611836 1.9944184 -1.2917278 -1.5173146 2.7804644 0.5752323
-1.09728 1.70273 1.555941 -0.614973 0.6041326 -1.7781473 0.20757201 1.521643
-0.2309253 -0.42255193 -4.0945625 0.33796966 -3.002756 -3.8112936 -4.7091618 1.4865203
-3.0371225 -2.5692408 2.0879014 0.12946957 0.4119702 0.322844 -0.27642 -0.13685395
0.16377467 -0.99833953 -0.30279097 0.441345 0.72959155 0.1867919 -0.21459234 -2.6013136
-4.57523 0.61532766 2.9990733 -4.2150817 0.13901624 0.30583018 0.8583203 0.5080602
-0.156142 1.1424018 0.3999494 -0.33197153 -1.2168701 -1.6122494 3.3535514 -3.1424766
-2.1171513 0.48088786 -2.1624808 1.0660664 -1.1335679 -4.5353427 0.4369053 -0.084083475
0.2071214 -0.2760113 -0.0076111895 0.941442 0.3007454 0.044519857 -0.83881825 -1.0094917
-1.1601679 -0.3773455 1.3440936 0.30847177 0.37080565 0.121125065 -1.4496468 -3.0215077
-1.4419723 0.7972341 1.8083775 -0.82874656 1.5328071 -2.1387782 -4.8391757 0.47944734
1.5267168 -1.8172305 -0.38967022 4.3467183 0.20569141 0.89182365 0.31953907 -3.0200431
2.790946 0.039475117 0.10855932 -0.3118143 -0.89450276 1.1190429 0.2929076 -0.0726739
-0.11299915 -0.09638821 -0.027238859 -0.031127019 -0.8146417 1.4852465 0.4050056 -1.289342
00000000: 9da2 0fbd 294a 6abf 4ac7 ee3f 7d5e 86bf
00000010: 8530 733f 620d 5bbf c118 5fbf 4cb9 973f
00000020: 6427 aa3f 1296 9abf 7d59 3cc0 1d2d 4940
00000030: 555a 87bf 6c74 eb3f 95d1 1ac0 46d2 443f
00000040: 6053 9abf 7a3d d8bf f84b 2e40 81d9 9ebe
00000050: e700 bcbf 147d cabf be0d 113f 1917 4cc0
00000060: aac3 1140 44dc bbbe ee09 47c0 2c2f dbbd
00000070: c55d 86bc ad69 863e 93aa 633e ebc1 2c3f
00000080: 22c8 6e3e ef29 16bf 801a 69bf 2069 52bf
00000090: 16b9 ad3e be90 2cbf 7a9d 9cbe ba24 57c0
000000a0: e560 21c0 a8bf 0f3e f2c3 fa3f b1e2 153f
000000b0: e9bf 31bf 8348 c8bf 5a9e 1ec0 28d6 44bf
000000c0: 642c fd3f d3a8 39c0 ce03 84bf 2c46 4340
000000d0: 563e 55bf 5313 1cbf 5e82 3840 1c6a 833f
000000e0: 0b20 1abe 678d 84bf 02b3 e1bf 6159 903e
000000f0: ce80 163f 39b2 923f 1d12 04bf 7e5d c7be
00000100: 777a 883f a91f 61bd 4f37 89bf 5080 113f
00000110: 4fcc 0dbe 5dd4 8dbe b8ea 533f ffd9 6c3d
00000120: 453b 473e 2b99 0840 9929 bf3d ca0a 0240
00000130: 6eec 5ec0 1b8b c23f 24c9 003f 1b93 c43f
00000140: d95c 0abf 2c37 00bf 4998 88bf cdf4 efbe
00000150: 915d 85bf 6780 6f40 1580 52bf b199 9e3e
00000160: 03a6 32bf 6284 a4be 3a8d ea3f 31d1 253f
00000170: 4009 45bf 1e6d d03f 02c3 1240 ba42 663f
00000180: 7514 183f d355 2d40 d841 62bf 1597 14bf
00000190: 6b7c 9d3e cd99 bbbe dd84 513d 9731 a53f
000001a0: 04f8 cdbd e7c6 18bf 712a 29be 5428 07bf
000001b0: 9cb6 973f 4252 93bf 5637 953e 5ba0 88bf
000001c0: c4c3 c93e 3106 9a3f a7e5 27bf 8f47 8abf
000001d0: 5bea 05be 428e 3bc0 5fbe 3d40 78c9 c13f
000001e0: 9088 87c0 8534 9ac0 362c d4be 5f84 04bf
000001f0: 813a aabe e886 253e b7d3 9fbf 073f 0c40
00000200: 68f1 a53f e281 a8c0 12e5 52c0 39aa 2dbf
00000210: c3a1 d4bf a62b 54bf f645 a9bf 5a6f 6abe
00000220: ffe9 d6bc 7086 fcbe 373b 6f3b 7e50 903e
00000230: 0401 e83e ef63 cbbe 40e5 91bd baaa c2be
00000240: 778f f13f f483 b53f 4b49 60bf 1a49 ff3f
00000250: 5657 a5bf 5d37 c2bf 21f3 3140 6d42 133f
00000260: ac73 8cbf 0ef3 d93f 1329 c73f df6e 1dbf
00000270: 6fa8 1a3f 559a e3bf c28d 543e 33c5 c23f
00000280: af77 6cbe ba58 d8be a806 83c0 5c0a ad3e
00000290: 282d 40c0 3cec 73c0 74b1 96c0 4c46 be3f
000002a0: 3760 42c0 716e 24c0 2da0 0540 ac93 043e
000002b0: c2ed d23e cf4b a53e ec86 8dbe 7123 0cbe
000002c0: 8cb4 273e 2e93 7fbf 6b07 9bbe f9f7 e13e
000002d0: 83c6 3a3f 6046 3f3e 18be 5bbe ec7b 26c0
000002e0: 4968 92c0 1d86 1d3f d1f0 3f40 f3e1 86c0
000002f0: 465a 0e3e c695 9c3e e1ba 5b3f 3c10 023f
00000300: b0e3 1fbe 393a 923f 2bc6 cc3e 2cf8 a9be
00000310: 66c2 9bbf 305e cebf 96a0 5640 561e 49c0
00000320: 687f 07c0 ef36 f63e 1666 0ac0 dd74 883f
00000330: c118 91bf 8721 91c0 0db2 df3e f533 acbd
00000340: a217 543e 5a51 8dbe 4967 f9bb 5802 713f
00000350: 4dfb 993e 745a 363d cbbc 56bf 0637 81bf
00000360: 6280 94bf 6e33 c1be 420b ac3f 03f0 9d3e
00000370: 3dda bd3e 6b10 f83d 078e b9bf 6260 41c0
00000380: 8c92 b8bf 8917 4c3f ea78 e73f bc28 54bf
00000390: 0633 c43f bee1 08c0 87da 9ac0 1f7a f53e
000003a0: 756b c33f 029b e8bf db82 c7be 5118 8b40
000003b0: c5a0 523e 8e4e 643f a09a a33e 6348 41c0
000003c0: dc9e 3240 a9b0 213d 5954 de3d 20a6 9fbe
000003d0: 22fe 64bf cc3c 8f3f fcf7 953e 0ed6 94bd
000003e0: 196c e7bd 2f67 c5bd 0724 dfbc 17fe febc
000003f0: 5c8c 50bf 8f1c be3f e55c cf3e 2909 a5bf

weight f4 [32]
1.1591327 2.4210992 2.4834557 2.2947989 1.0363417 2.495127 2.1998725 2.2501602
2.0085268 1.9307175 2.6543877 2.2074533 0.9889867 2.3192892 2.068579 2.007574
1.2959355 2.1598904 1.621858 1.5048817 0.9888134 1.41843 2.5908854 1.3974144
1.4312886 1.4967785 1.9726226 1.7916472 2.487874 1.8298827 1.4178141 1.8553364
00000000: 765e 943f 4af3 1a40 f0f0 1e40 fcdd 1240
00000010: d8a6 843f 29b0 1f40 b6ca 0c40 a002 1040
00000020: b48b 0040 c021 f73f 7de1 2940 ea46 0d40
00000030: 3b2e 7d3f 3c6f 1440 9963 0440 187c 0040
00000040: 37e1 a53f a53b 0a40 0b99 cf3f f79f c03f
00000050: e022 7d3f 1d8f b53f 11d1 2540 7ade b23f
00000060: 7734 b73f 7096 bf3f e67e fc3f b254 e53f
00000070: 5439 1f40 9939 ea3f ef7a b53f aa7b ed3f

bias f4 [32]
0.31068453 -1.495787 -1.6630774 -0.4707744 1.8461299 -0.9105556 -0.8466597 -0.66555893
-0.5637807 -0.5432234 -1.7384608 -0.66709113 1.048285 -1.1177483 -0.6630573 0.10677195
0.5115952 0.31400347 -0.11960237 -0.42971024 0.54888046 -0.18012218 0.00539054 0.4138269
0.044547424 0.09618432 -0.6591379 -0.51245683 -1.4528184 0.92936856 -0.5341431 -0.5953263
00000000: 0b12 9f3e f375 bfbf b8df d4bf 5809 f1be
00000010: fc4d ec3f 2c1a 69bf b1be 58bf 1262 2abf
00000020: ef53 10bf b010 0bbf e285 debf 7cc6 2abf
00000030: 342e 863f 6012 8fbf 20be 29bf 41ab da3d
00000040: e7f7 023f 10c5 a03e 16f2 f4bd fb02 dcbe
00000050: 6e83 0c3f f371 38be 21a3 b03b 1fe1 d33e
00000060: 5c77 363d 49fc c43d 43bd 28bf 5f30 03bf
00000070: f4f5 b9bf 19eb 6d3f 9abd 08bf 4e67 18bf

running_mean f4 [32]
-1.457384 -2.8747106 1.0839165 -3.7252378 1.1911085 -2.6994371 -2.6475801 -4.658684
-3.8799257 -1.0199084 -1.5537274 -2.4289944 -1.0160652 -2.6879244 -1.1999999 -4.922167
0.8184539 -0.946874 -1.8043246 -1.5131246 -0.60474974 -0.17782208 -0.94374853 0.833031
1.7337726 -1.2417877 -2.1692092 -1.6857345 -3.0916839 2.910168 -1.6206263 -2.4805012
00000000: 8f8b babf 42fb 37c0 c7bd 8a3f 4c6a 6ec0
00000010: 3e76 983f 94c3 2cc0 f471 29c0 f013 95c0
00000020: b450 78c0 5c8c 82bf 8ae0 c6bf a574 1bc0
00000030: 6d0e 82bf f406 2cc0 9999 99bf 6482 9dc0
00000040: 3286 513f 5666 72bf 1cf4 e6bf 11ae c1bf
00000050: e1d0 1abf fe16 36be 8199 71bf 8541 553f
00000060: 43ec dd3f e6f2 9ebf 53d4 0ac0 26c6 d7bf
00000070: 26de 45c0 3140 3a40 af70 cfbf 88c0 1ec0

running_var f4 [32]
7.962321 10.871719 11.999461 18.442463 9.051911 16.684175 13.729122 11.308872
11.371047 7.7898493 18.301807 15.03398 8.578503 14.446975 6.340043 23.506136
4.245915 28.738388 9.079041 10.191708 4.7664156 6.903185 36.833656 5.892902
5.3831606 12.062563 14.411978 12.993489 17.139618 4.6818404 12.875372 13.815414
00000000: 55cb fe40 90f2 2d41 cbfd 3f41 2a8a 9341
00000010: a1d4 1041 3179 8541 7caa 5b41 24f1 3441
00000020: cfef 3541 7246 f940 1a6a 9241 2f8b 7041
00000030: 8c41 0941 cf26 6741 a2e1 ca40 910c bc41
00000040: 89de 8740 38e8 e541 c043 1141 3c11 2341
00000050: 7a86 9840 e4e6 dc40 aa55 1342 a792 bc40
00000060: da42 ac40 4200 4141 7697 6641 55e5 4f41
00000070: f01d 8941 a3d1 9540 8601 4e41 f00b 5d41

weight f4 [64, 32, 3, 3]
0.71573085 -1.2242321 -0.9202995 1.5433135 -1.3886274 1.8494711 -2.0701375 0.3897403
0.26139623 0.37873396 -0.4617254 0.26329294 -0.23256402 0.92761153 0.4090274 -0.46814078
-0.4982413 1.1394539 0.7013422 -0.033747565 0.9589674 -0.8505477 -3.9255931 1.1737515
0.41263154 1.5594647 -0.16796128 0.87147653 1.0962538 -0.9756293 -0.8073106 0.534934
-0.86800975 1.0893328 -0.8173526 1.9760176 1.0199944 0.26727122 -1.6929032 1.4264601
3.6046546 -1.0670995 1.553316 -1.0599134 -1.6685822 -0.17828916 1.9421066 -0.49802178
0.60914683 0.8311389 1.0765094 -0.28619274 -0.028239492 -0.024948271 0.0042594983 -0.17526257
-0.58544403 0.8317261 1.8548076 0.9645192 0.24568945 -1.3706815 0.6313111 -0.02474357
0.7252727 -0.6487311 0.5326192 0.46718323 0.14694285 -0.23790365 0.56993854 0.077697776
0.48858318 0.8081664 -0.41676882 -0.079409145 0.6932539 0.61025786 -0.4131454 0.71881384
-0.14805137 0.011190559 -0.665312 0.36848867 -0.4165857 1.8496346 -2.6717763 0.5491956
-1.7161616 0.0032141013 0.26968688 0.68315613 0.36805096 1.2372675 -5.717467 0.36928758
0.35886732 0.8838299 -0.09926072 0.10240967 1.2357142 0.26689002 -0.4211472 2.6374764
-0.7186532 0.2285947 0.70807266 0.7443734 0.58833647 2.27898 0.26172394 -0.2819145
-0.8932469 -1.4653549 1.046469 -1.9284616 5.2916665 0.91700226 0.17526986 0.032580797
-2.3897235 0.660515 -0.19059354 0.66168654 0.028990917 1.3174658 -4.201674 -0.1917092
1.2940103 0.07364551 0.7225349 -1.0178173 0.80918866 -0.4871952 0.29603952 -0.55282855
0.09506413 -0.67407596 1.068852 -4.221455 0.5735881 -1.138203 1.4214511 -1.540197
-0.8427889 3.9335275 -0.8946071 -1.9079797 -1.2768356 0.33685908 3.0900786 -0.9668673
-0.08408906 0.60857743 0.47289684 0.44610286 -4.4947753 -6.4668 0.81565666 -0.09059243
0.9954922 0.5645606 -0.04442954 -0.23191851 0.08236826 0.899719 -1.1527888 -0.5900737
0.08073496 -0.18787909 -0.6005477 0.84141684 -1.1421763 0.7078306 0.6767105 0.20858091
0.7398475 -0.56981844 -1.1274145 -0.48382828 0.5587052 -0.19766681 -0.46147826 -0.59435433
0.5003173 0.28073034 -1.6777518 -0.02856241 1.662832 0.86649305 -1.1492997 -1.0521271
0.837503 -0.48644245 -1.3142107 -0.8228919 -0.45336533 0.5834532 -0.6647598 -4.0309577
-0.29869938 1.2110051 -5.815684 -0.031693652 0.27374342 -0.774237 0.356686 3.1949165
1.5581571 -0.90514827 -0.98567355 0.16046257 1.4282407 -1.2538381 -0.07016316 -0.2377988
1.187376 1.284655 -0.9130123 -0.503105 0.032226373 -0.41358203 -0.17622353 1.8617939
-0.61486787 0.633149 0.4462329 0.059430063 0.046258222 0.72281855 -1.1150444 -0.13159181
0.44312635 -0.44035023 -0.007960351 -1.0769427 0.16246323 0.16672309 0.684954 0.037327044
-0.45916834 0.1429061 -0.16098186 0.42550352 0.15780216 0.860851 -0.014960614 -0.02681796
2.020033 -0.93630415 -0.8799114 0.5795352 0.113080986 0.11446952 -0.03495746 -0.111039534
00000000: 233a 373f a3b3 9cbf bf98 6bbf 4c8b c53f
00000010: 8bbe b1bf 78bb ec3f 227d 04c0 0a8c c73e
00000020: bad5 853e 6be9 c13e 4667 ecbe 55ce 863e
00000030: 4325 6ebe f377 6d3f 0a6c d13e 26b0 efbe
00000040: 7c19 ffbe a0d9 913f 2a8b 333f e33a 0abd
00000050: e37e 753f 7ebd 59bf eb3c 7bc0 7d3d 963f
00000060: 7144 d33e 8a9c c73f 0bfe 2bbe 1619 5f3f
00000070: 0b52 8c3f d8c2 79bf e8ab 4ebf 6ff1 083f
00000080: e335 5ebf 426f 8b3f 053e 51bf 25ee fc3f
00000090: 2d8f 823f c6d7 883e 0db1 d8bf 3f96 b63f
000000a0: a9b2 6640 b796 88bf 0fd3 c63f 3eab 87bf
000000b0: 1a94 d5bf 6f91 36be f396 f83f b6fc febe
000000c0: 0cf1 1b3f 85c5 543f 0fcb 893f db87 92be
000000d0: 8256 e7bc 5160 ccbc 4393 8b3b 0878 33be
000000e0: a9df 15bf 00ec 543f 566a ed3f bbea 763f
000000f0: 0496 7b3e 7e72 afbf 9b9d 213f 07b3 cabc
00000100: 79ab 393f 3e13 26bf bb59 083f a432 ef3e
00000110: 3078 163e 049d 73be 7ee7 113f 0320 9f3d
00000120: 9327 fa3e fee3 4e3f b962 d5be 43a1 a2bd
00000130: 1679 313f dc39 1c3f cb87 d3be 2f04 383f
00000140: c79a 17be 9b58 373c e351 2abf 8caa bc3e
00000150: b94a d5be d4c0 ec3f 62fe 2ac0 1598 0c3f
00000160: 2fab dbbf aca3 523b 6614 8a3e 52e3 2e3f
00000170: 2d71 bc3e c85e 9e3f 7df5 b6c0 4313 bd3e
00000180: 75bd b73e ad42 623f 3449 cbbd 29bc d13d
00000190: e22b 9e3f cfa5 883e 9ba0 d7be 6acc 2840
000001a0: a8f9 37bf bb14 6a3e 4044 353f 418f 3e3f
000001b0: 389d 163f cfda 1140 ae00 863e 1957 90be
000001c0: d4ab 64bf c090 bbbf b2f2 853f d4d7 f6bf
000001d0: 5555 a940 a9c0 6a3f f179 333e 7173 053d
000001e0: 3bf1 18c0 8317 293f f42a 43be 4a64 293f
000001f0: 5c7e ed3c b8a2 a83f 1d74 86c0 6b4f 44be
00000200: 21a2 a53f 75d3 963d 0cf8 383f d647 82bf
00000210: fd26 4f3f a671 f9be 7e92 973e 2c86 0dbf
00000220: fcb0 c23d 3e90 2cbf 24d0 883f 2916 87c0
00000230: abd6 123f a3b0 91bf 1cf2 b53f 2d25 c5bf
00000240: 03c1 57bf eabe 7b40 f904 65bf ae38 f4bf
00000250: 596f a3bf cb78 ac3e d9c3 4540 9e84 77bf
00000260: e336 acbd bbcb 1b3f 891f f23e 9867 e43e
00000270: 33d5 8fc0 07f0 cec0 e0ce 503f 8688 b9bd
00000280: 94d8 7e3f 0b87 103f c0fb 35bd 0c7c 6dbe
00000290: b1b0 a83d fc53 663f 958e 93bf 120f 17bf
000002a0: 5f58 a53d 6063 40be 7ebd 19bf 1867 573f
000002b0: d532 92bf 6334 353f e63c 2d3f 3c96 553e
000002c0: a566 3d3f 9fdf 11bf 1e4f 90bf 57b8 f7be
000002d0: 4e07 0f3f 2b69 4abe e146 ecbe 9b27 18bf
000002e0: cb14 003f e3bb 8f3e 92c0 d6bf b7fb e9bc
000002f0: aed7 d43f 7dd2 5d3f 411c 93bf 1aac 86bf
00000300: 9966 563f fc0e f9be 0e38 a8bf 0ba9 52bf
00000310: 801f e8be 305d 153f b32d 2abf 9bfd 80c0
00000320: 20ef 98be 3702 9b3f 151a bac0 34d1 01bd
00000330: 1928 8c3e 6534 46bf 8c9f b63e 8379 4c40
00000340: b171 c73f ccb7 67bf 1a55 7cbf 4d50 243e
00000350: 97d0 b63f c47d a0bf b4b1 8fbd 8781 73be
00000360: f0fb 973f 936f a43f 2dbb 69bf 7dcb 00bf
00000370: cdff 033d 06c1 d3be f173 34be 434f ee3f
00000380: fb67 1dbf 0e16 223f a378 e43e f06c 733d
00000390: 4379 3d3d a30a 393f c6b9 8ebf 01c0 06be
000003a0: 75e1 e23e 9675 e1be 226c 02bc 42d9 89bf
000003b0: c35c 263e 75b9 2a3e 2559 2f3f 3ee4 183d
000003c0: 1d18 ebbe fa55 123e 6ed8 24be 99db d93e
000003d0: e496 213e bb60 5c3f 5d1d 75bc 57b1 dbbc
000003e0: 3848 0140 a1b1 6fbf e041 61bf 6b5c 143f
000003f0: 0197 e73d ff6e ea3d 8e2f 0fbd b268 e3bd

weight f4 [64]
3.3383021 1.9556234 1.2037743 2.1834764 1.9171389 1.3165598 1.961841 1.8733279
2.1061823 1.788108 1.1832962 1.7053587 1.4446636 1.5831118 1.6163833 1.7027453
2.7883875 1.5994221 1.8933246 1.6698841 1.1006978 2.1597803 1.7670109 1.5509151
1.4442576 2.4854815 1.9954199 1.4666368 1.7722138 1.4146469 2.2540166 2.1815562
1.8811606 2.548382 1.6890006 2.0757277 1.2359351 1.9002588 1.7532347 1.830779
1.5732571 1.6120548 1.9893152 1.861329 1.9496341 1.486594 1.9090286 1.5241685
1.67724 2.164378 2.0085235 2.572498 2.1395564 1.9740403 1.9131442 1.7834567
1.827592 1.9063165 1.8135526 1.1333389 1.4504745 2.0022697 1.5558873 1.4104077
00000000: bea6 5540 de51 fa3f 4715 9a3f 14be 0b40
00000010: cf64 f53f 0885 a83f 9b1d fb3f 35c9 ef3f
00000020: b1cb 0640 b9e0 e43f 4076 973f 3249 da3f
00000030: bdea b83f 68a3 ca3f a6e5 ce3f 8ff3 d93f
00000040: f174 3240 ddb9 cc3f 7658 f23f c3be d53f
00000050: aae3 8c3f d739 0a40 6a2d e23f 6384 c63f
00000060: 6fdd b83f 2112 1f40 eb69 ff3f c1ba bb3f
00000070: e7d7 e23f 2613 b53f cf41 1040 9e9e 0b40
00000080: dfc9 f03f b118 2340 2c31 d83f b9d8 0440
00000090: 1f33 9e3f ae3b f33f ff69 e03f f756 ea3f
000000a0: 7d60 c93f d057 ce3f e1a1 fe3f 0740 ee3f
000000b0: 9c8d f93f b648 be3f 0d5b f43f f417 c33f
000000c0: cdaf d63f 2b85 0a40 a68b 0040 cfa3 2440
000000d0: 7eee 0840 5aad fc3f e9e1 f43f 4f48 e43f
000000e0: 89ee e93f 2e02 f43f 7e22 e83f 4011 913f
000000f0: 26a9 b93f 3025 0040 5127 c73f 3d88 b43f

bias f4 [64]
0.34230617 -0.88726574 -0.12468011 -1.5194918 -0.77965707 0.15947096 -1.2623116 -1.0470091
-1.4644003 -0.99889034 0.17581867 -0.5389171 -0.2173059 -1.1735158 -1.407104 -0.6789176
-1.2317538 -0.80188656 -0.7757542 -0.21492444 -0.17426835 -1.5743163 -1.2112707 -0.7134791
-0.5572405 -2.2894428 -1.0378646 -0.21102193 -0.9887884 -0.6084599 -1.4760154 -1.3478775
-0.9500858 -2.0229328 -0.58570296 -0.8872637 0.25158295 -0.5361533 -0.7932077 -1.1355991
-0.670914 -0.6665819 -1.1389076 -1.112217 -1.1930729 -0.7124541 -1.3405355 -0.3788788
-1.0897592 -1.1186008 -1.5384574 -1.790869 -1.6954632 -0.65258807 -0.8510743 -0.44755727
-1.1681912 -0.8420464 -1.3633405 0.23192716 -0.48210812 -1.6043706 -0.28152612 -0.3219789
00000000: c142 af3e d923 63bf 4958 ffbd b57e c2bf
00000010: 9b97 47bf 5b4c 233e 6d93 a1bf 6504 86bf
00000020: 7871 bbbf 47b7 7fbf cf09 343e 79f6 09bf
00000030: 7085 5ebe c435 96bf fc1b b4bf 8bcd 2dbf
00000040: 1caa 9dbf 7048 4dbf d497 46bf 2715 5cbe
00000050: 6773 32be 3283 c9bf eb0a 9bbf 91a6 36bf
00000060: 50a7 0ebf 3b86 12c0 bfd8 84bf 2216 58be
00000070: 3d21 7dbf 07c4 1bbf 13ee bcbf 4087 acbf
00000080: d338 73bf bb77 01c0 a1f0 15bf b723 63bf
00000090: 7bcf 803e 5841 09bf a90f 4bbf 505b 91bf
000000a0: 05c1 2bbf 1da5 2abf b9c7 91bf 205d 8ebf
000000b0: 9db6 98bf 6463 36bf ab96 abbf 67fc c1be
000000c0: 3b7d 8bbf 502e 8fbf 2cec c4bf 323b e5bf
000000d0: f004 d9bf 0310 27bf 01e0 59bf 3a26 e5be
000000e0: 4a87 95bf 5a90 57bf f181 aebf 507e 6d3e
000000f0: e0d6 f6be 045c cdbf 3124 90be 6bda a4be

running_mean f4 [64]
-6.0551877 -25.864983 -28.514914 -6.7765203 -33.024887 0.4571572 -22.892796 -5.5738487
-34.88727 -16.539433 -39.846924 -36.231274 -17.14233 33.743206 -3.2438364 -19.181475
-32.62002 -13.854028 -48.08334 -47.23358 -16.005669 -21.697903 -28.201555 -16.955599
-61.236816 -41.31146 -14.702665 -25.458288 -13.024934 -21.05575 -38.30417 -24.474995
-42.036957 -36.774353 -7.337169 -47.127922 24.306677 -44.500607 -45.19182 -4.5492454
-21.573977 -23.092724 -27.219156 -42.290173 -27.427353 -34.414173 -9.618858 -11.457395
8.428565 -5.8804092 -27.915783 -27.33284 -20.356161 -35.285034 -23.18289 -28.392952
-13.490751 -22.061365 -19.609215 -3.8609152 -20.849922 -10.327243 -7.1603384 -17.423742
00000000: 19c4 c1c0 7ceb cec1 8b1e e4c1 41d9 d8c0
00000010: 7c19 04c2 8210 ea3e 7224 b7c1 f85c b2c0
00000020: 918c 0bc2 c250 84c1 4063 1fc2 d3ec 10c2
00000030: 7e23 89c1 0bf9 0642 049b 4fc0 a973 99c1
00000040: e77a 02c2 19aa 5dc1 5755 40c2 30ef 3cc2
00000050: 9c0b 80c1 4e95 adc1 c99c e1c1 11a5 87c1
00000060: 80f2 74c2 ef3e 25c2 1e3e 6bc1 93aa cbc1
00000070: 2166 50c1 2d72 a8c1 7837 19c2 cacc c3c1
00000080: d825 28c2 f018 13c2 17ca eac0 fe82 3cc2
00000090: 1374 c241 9f00 32c2 6cc4 34c2 6b93 91c0
000000a0: 8197 acc1 e6bd b8c1 d5c0 d9c1 2329 29c2
000000b0: 386b dbc1 1da8 09c2 d8e6 19c1 7d51 37c1
000000c0: 67db 0641 502c bcc0 8653 dfc1 a8a9 dac1
000000d0: 6bd9 a2c1 e023 0dc2 8f76 b9c1 c424 e3c1
000000e0: 1eda 57c1 ad7d b0c1 acdf 9cc1 3c19 77c0
000000f0: a4cc a6c1 633c 25c1 7e21 e5c0 d363 8bc1

running_var f4 [64]
888.77893 759.2108 543.84485 625.84656 476.99863 1092.4595 764.3125 663.3559
778.9979 763.02405 777.8077 732.14124 1295.4457 499.48505 711.54364 780.9344
440.39493 528.05585 952.81573 851.0723 548.5824 1025.388 740.54614 743.4006
952.52765 629.6502 918.3903 631.9544 527.1375 654.24304 787.59424 876.21423
893.9666 874.4901 1024.1653 598.00964 630.0723 842.45526 746.73785 579.43646
871.65015 477.33502 890.9085 1576.886 605.9831 824.9091 557.44147 968.0318
564.67584 983.7452 560.28937 545.85706 658.05273 736.70776 912.8176 832.67645
516.15796 755.755 611.4201 810.6299 625.4413 428.4273 572.37634 582.4918
00000000: da31 5e44 7ecd 3d44 12f6 0744 2e76 1c44
00000010: d37f ee43 b48e 8844 0014 3f44 c7d6 2544
00000020: debf 4244 8ac1 3e44 b173 4244 0a09 3744
00000030: 43ee a144 16be f943 cbe2 3144 cd3b 4344
00000040: 8d32 dc43 9303 0444 3534 6e44 a1c4 5444
00000050: 4625 0944 6a2c 8044 f422 3944 a3d9 3944
00000060: c521 6e44 9d69 1d44 fb98 6544 15fd 1d44
00000070: cdc8 0344 8e8f 2344 08e6 4444 b60d 5b44
00000080: dd7d 5f44 5e9f 5a44 4a05 8044 9e80 1544
00000090: a184 1d44 239d 5244 39af 3a44 efdb 1044
000000a0: 9ce9 5944 e2aa ee43 25ba 5e44 5a1c c544
000000b0: eb7e 1744 2f3a 4e44 415c 0b44 0902 7244
000000c0: 412b 0d44 b1ef 7544 8512 0c44 da76 0844
000000d0: 6083 2444 4c2d 3844 5434 6444 4b2b 5044
000000e0: 1c0a 0144 52f0 3c44 e3da 1844 50a8 4a44
000000f0: 3e5c 1c44 b236 d643 1618 0f44 7a9f 1144

weight f4 [64, 64, 3, 3]
-0.4151509 -0.037180807 -1.3962487 -1.7839175 -5.1125846 -2.6694224 -0.9466656 -2.0918925
-2.5547163 -0.5887308 0.32535616 0.5069666 -0.9476383 0.3596674 1.2063572 -1.0201079
1.6194797 1.9658874 -1.4505621 -0.11530993 -1.3343083 -0.95586985 -0.29481298 0.27604812
0.5162725 -0.54853404 -0.45311227 -1.9544775 2.316015 -1.5687758 0.20978811 -0.42630073
0.87525105 -2.5309207 -1.2390226 -0.2898159 -0.7832951 0.13933414 2.812745 1.3405671
-0.6219411 1.0612913 -0.7546565 0.579739 0.84896606 -0.67209053 -0.1907551 1.3212532
1.2450407 -1.3739209 -0.6305167 -0.50300044 -1.197077 -0.50039417 -0.9816117 -0.69206035
-0.83460736 -1.2635499 -1.4440557 -0.559902 -3.0282063 1.2026536 2.3804524 2.538238
0.34525695 -2.2714498 0.9214705 -0.6692694 -2.0521042 -0.17684951 -0.06889534 -1.683225
2.4302244 -2.6364422 -0.8979788 1.1872169 -2.5263786 0.9861535 1.3102726 0.24433321
-0.079722896 -1.0871744 0.7479529 -1.2729688 -0.27712834 -0.9845135 0.9102752 0.5972854
-3.3061337 -0.031211436 -1.0146488 0.043850407 -3.2630033 0.015098414 0.7298021 0.9137318
-0.74237764 0.21548389 0.9134105 -0.7828182 1.3477883 -0.08729822 1.4537652 -2.4266872
-1.132335 1.3270692 -0.5795264 -1.701424 1.2068882 0.505991 1.285254 1.357358
-0.1458493 -2.5038164 1.3674033 -2.9701238 -0.74935955 -2.2144876 -0.5454046 2.629262
-3.2275035 -0.34697768 1.1125643 2.3979945 0.87003744 0.94430107 -1.0335842 -0.45615646
-1.6939714 1.4493324 0.9116864 2.643369 -0.14137319 1.6652826 -4.9636216 0.27501142
0.6347569 0.09021011 1.2283663 -1.0886977 -0.6916266 1.9084375 0.94026476 -0.11400927
1.2736053 0.5960839 1.39366 2.0662599 -0.47743627 1.5290039 2.8836522 0.41976377
0.95299774 -0.7592378 1.4894394 0.77421266 0.6885755 -2.376724 1.7736477 -1.4979681
0.24733429 1.1346192 0.5617766 -0.32601118 -2.3265278 -0.27246925 -1.0166531 0.88301295
-0.12064472 1.872632 0.11264316 0.57229525 -1.5432891 2.4930792 -0.8406827 0.06070273
1.8014176 -2.2187428 0.22638847 0.3445833 1.2513545 -0.9749507 -0.42089713 -0.37871346
0.48339137 1.4849095 4.4950476 -0.6417812 0.00706898 -0.8716721 -1.7972195 -1.7887524
0.76355785 -2.0143397 -0.5671487 -1.5550953 -0.36298102 2.566434 -0.24440868 -0.24155736
-0.37246126 -0.49623123 -1.7038809 -1.941635 0.15443103 -0.41030127 -1.9498199 0.19790195
0.013077991 1.6314759 0.43145406 0.9184939 -0.703884 1.3591353 1.5725335 -0.47914544
0.60633796 1.5737358 2.3541644 -1.9696274 0.82060575 -1.5756162 -0.82097703 -1.5429823
1.6733292 2.8934698 0.12949698 -0.25620747 -0.9802693 -0.08254121 -1.0360919 -0.16717686
0.1677584 1.1930497 0.9235039 -0.0031051633 -0.14754935 0.7279683 -0.19008255 0.9919007
-1.7497754 -0.17136772 -1.6032815 -1.7824997 1.4192075 -0.14471436 -1.2843678 -2.5646868
0.25155893 -1.2521269 -0.103524394 0.6753276 0.8148339 -1.8999915 -0.26745927 0.33454195
00000000: a98e d4be e74a 18bd 47b8 b2bf 6957 e4bf
00000010: 4b9a a3c0 d1d7 2ac0 ad58 72bf 91e1 05c0
00000020: 7980 23c0 10b7 16bf 1595 a63e 90c8 013f
00000030: 6c98 72bf 5326 b83e ea69 9a3f e592 82bf
00000040: 1c4b cf3f 33a2 fb3f 05ac b9bf 9d27 ecbd
00000050: 9dca aabf e3b3 74bf baf1 96be 2e56 8d3e
00000060: 6f2a 043f ba6c 0cbf 55fe e7be 522c fabf
00000070: 9739 1440 a5cd c8bf b2d2 563e 1744 dabe
00000080: 7410 603f 9bfa 21c0 4b98 9ebf c062 94be
00000090: 0786 48bf 9cad 0e3e 0404 3440 b497 ab3f
000000a0: 8837 1fbf 65d8 873f 2b31 41bf c669 143f
000000b0: d755 593f 200e 2cbf 4e55 43be d31e a93f
000000c0: 7e5d 9f3f a4dc afbf 8b69 21bf a3c4 00bf
000000d0: d239 99bf d519 00bf e84a 7bbf de2a 31bf
000000e0: d4a8 55bf 01bc a1bf d1d6 b8bf bd55 0fbf
000000f0: 22ce 41c0 8ef0 993f 5559 1840 7e72 2240
00000100: 85c5 b03e 6f5f 11c0 7ee5 6b3f 3d55 2bbf
00000110: ad55 03c0 0a18 35be 0019 8dbd eb73 d7bf
00000120: cc88 1b40 78bb 28c0 f0e1 65bf b9f6 973f
00000130: 30b0 21c0 8e74 7c3f 03b7 a73f 7c32 7a3e
00000140: c245 a3bd 8828 8bbf d779 3f3f a4f0 a2bf
00000150: c4e3 8dbe 1409 7cbf cc07 693f b2e7 183f
00000160: b297 53c0 20af ffbc 03e0 81bf 7c9c 333d
00000170: 0cd5 50c0 575f 773c 4fd4 3a3f 54ea 693f
00000180: 760c 3ebf cfa7 5c3e 45d5 693f c666 48bf
00000190: 5484 ac3f 69c9 b2bd fa14 ba3f d84e 1bc0
000001a0: 5af0 90bf 67dd a93f d85b 14bf 43c8 d9bf
000001b0: 507b 9a3f a088 013f 3483 a43f e8bd ad3f
000001c0: 8559 15be 873e 20c0 1207 af3f 8216 3ec0
000001d0: 07d6 3fbf 2aba 0dc0 a39f 0bbf d445 2840
000001e0: 6b8f 4ec0 0fa7 b1be 8268 8e3f be78 1940
000001f0: c6ba 5e3f b7bd 713f 7d4c 84bf 578d e9be
00000200: 0ed4 d8bf b983 b93f 4864 693f f52c 2940
00000210: 22c4 10be fb27 d53f fdd5 9ec0 4cce 8c3e
00000220: 6e7f 223f 14c0 b83d 1b3b 9d3f 725a 8bbf
00000230: 710e 31bf ae47 f43f 31b5 703f b17d e9bd
00000240: 8005 a33f f498 183f 7363 b23f 9a3d 0440
00000250: 8772 f4be 66b6 c33f c28d 3840 47eb d63e
00000260: a9f7 733f 695d 42bf f3a5 be3f cd32 463f
00000270: 7c46 303f 3f1c 18c0 e306 e33f 6bbd bfbf
00000280: 3345 7d3e 343b 913f 97d0 0f3f f0ea a6be
00000290: d5e5 14c0 1781 8bbe b021 82bf 230d 623f
000002a0: 9414 f7bd 68b2 ef3f 75b1 e63d f181 123f
000002b0: 7f8a c5bf 9c8e 1f40 fb36 57bf 6da3 783d
000002c0: da94 e63f e2ff 0dc0 61d2 673e 396d b03e
000002d0: 622c a03f 5e96 79bf d47f d7be bbe6 c1be
000002e0: 137f f73e 8411 be3f 6ed7 8f40 c64b 24bf
000002f0: e7a2 e73b e725 5fbf 4a0b e6bf d7f5 e4bf
00000300: 8778 433f f1ea 00c0 a830 11bf 5d0d c7bf
00000310: a6d8 b9be 7440 2440 4546 7abe d05a 77be
00000320: 3eb3 bebe 0512 febe c518 dabf 7f87 f8bf
00000330: 2b23 1e3e 0213 d2be b393 f9bf cfa6 4a3e
00000340: 1245 563c 34d4 d03f 8ce7 dc3e 6b22 6b3f
00000350: be31 34bf 25f8 ad3f c748 c93f 8d52 f5be
00000360: f738 1b3f 2d70 c93f a1aa 1640 c01c fcbf
00000370: 3813 523f cbad c9bf 8d2b 52bf 7280 c5bf
00000380: a72f d63f 9c2e 3940 db9a 043e a02d 83be
00000390: eef2 7abf 5e0b a9bd a99e 84bf 6930 2bbe
000003a0: dcc8 2b3e dab5 983f c06a 6c3f ff7f 4bbb
000003b0: 2d17 17be 215c 3a3f 00a5 42be 34ed 7d3f
000003c0: a4f8 dfbf 057b 2fbe 5438 cdbf f328 e4bf
000003d0: 97a8 b53f 0030 14be 2a66 a4bf d423 24c0
000003e0: 55cc 803e b245 a0bf 9904 d4bd 45e2 2c3f
000003f0: f498 503f ec32 f3bf 6cf0 88be 1549 ab3e

weight f4 [64]
1.4773599 1.424253 1.4547806 1.9450852 1.7135799 2.1383522 1.6110219 1.2463795
1.4007995 1.6153438 1.8359059 1.5436051 1.6724999 1.3401268 1.5528488 1.7076683
1.6389344 1.5709988 1.4673386 1.5710948 1.4093876 3.2306678 1.7797416 1.4341918
1.6115183 1.4936757 2.4836254 0.7577138 1.3923373 1.5184569 1.8364605 1.4949757
1.4697604 1.5935222 1.1172043 0.97805244 1.5062203 1.6914625 1.5907043 1.4421667
1.6686795 2.8477683 1.7869867 1.2514634 1.6782577 1.3954475 0.9905058 2.1940892
1.4895076 1.4041665 3.2179925 1.5195743 1.6813468 1.2537546 1.5142251 1.2189863
1.4496759 1.6032581 1.6063317 1.1751662 1.4646609 1.5497777 1.2924144 1.4844091
00000000: 211a bd3f ec4d b63f 4036 ba3f 8df8 f83f
00000010: 9656 db3f c3da 0840 f735 ce3f 5d89 9f3f
00000020: 664d b33f 96c3 ce3f f7fe ea3f da94 c53f
00000030: 7a14 d63f 4689 ab3f c0c3 c63f e094 da3f
00000040: 9ac8 d13f 7d16 c93f c0d1 bb3f a219 c93f
00000050: d066 b43f 43c3 4e40 93ce e33f 9993 b73f
00000060: 3b46 ce3f c430 bf3f b8f3 1e40 88f9 413f
00000070: 1c38 b23f cc5c c23f 2311 eb3f 5d5b bf3f
00000080: 1c21 bc3f 89f8 cb3f 8d00 8f3f a561 7a3f
00000090: d4cb c03f d881 d83f 339c cb3f eb98 b83f
000000a0: 4a97 d53f d641 3640 fbbb e43f f42f a03f
000000b0: 26d1 d63f 069e b23f ca91 7d3f f56b 0c40
000000c0: 2fa8 be3f babb b33f 97f3 4d40 6981 c23f
000000d0: 5f36 d73f 087b a03f 21d2 c13f be07 9c3f
000000e0: fb8e b93f 9037 cd3f 479c cd3f d96b 963f
000000f0: 027a bb3f 1e5f c63f d66d a53f 1e01 be3f

bias f4 [64]
-1.1826103 -0.6855565 -1.1281842 -1.578549 -2.244205 -1.6032465 -1.0242056 -0.9061561
-1.5188184 -1.736046 -1.9523388 -2.147623 -1.5174935 -0.82975733 -1.7117409 -2.0649486
-1.7482574 -1.3881639 -0.9178429 -1.3852587 -1.0642437 -0.97938293 -1.6198859 -1.7343606
-1.58006 -0.08547776 -0.91455764 0.6883642 -1.1625322 0.0026314864 -1.9351757 -1.6739299
-0.74884963 -1.6572347 -0.69474447 0.47327033 -1.1327976 -1.6746544 -1.1511023 -0.8802832
-1.7235386 -1.4486471 -1.1496222 -0.97941065 -0.49352828 -1.09912 -0.5460479 -0.0026151664
-1.5154407 -1.5701497 -1.9253848 -1.885728 -0.32444027 -0.84018177 -1.5723298 -0.29700452
-1.069696 -1.0804114 -2.3482714 -0.15386997 -1.5808688 -1.0146712 -1.2342315 -1.4400924
00000000: c65f 97bf a180 2fbf 5768 90bf e50d cabf
00000010: 0ea1 0fc0 2e37 cdbf 2b19 83bf d9f9 67bf
00000020: a468 c2bf c136 debf 3de6 f9bf a872 09c0
00000030: 3a3d c2bf fa6a 54bf 531a dbbf 1e28 04c0
00000040: e6c6 dfbf 5baf b1bf c1f7 6abf 2850 b1bf
00000050: 2339 88bf d7b8 7abf 6c58 cfbf 87ff ddbf
00000060: 683f cabf f70e afbd 7320 6abf a338 303f
00000070: dbcd 94bf 0475 2c3b d6b3 f7bf 5643 d6bf
00000080: 9cb4 3fbf 4420 d4bf c6da 31bf 7d50 f23e
00000090: 83ff 90bf 135b d6bf 5257 93bf 3d5a 61bf
000000a0: ea9c dcbf 456d b9bf d226 93bf a8ba 7abf
000000b0: bdaf fcbe f7af 8cbf ccc9 0bbf 3663 2bbb
000000c0: f6f9 c1bf aafa c8bf 0273 f6bf 895f f1bf
000000d0: 091d a6be 2716 57bf 1a42 c9bf fa10 98be
000000e0: cceb 88bf ec4a 8abf 144a 16c0 1790 1dbe
000000f0: e959 cabf bfe0 81bf 4cfb 9dbf f354 b8bf

running_mean f4 [64]
-47.790573 -11.958475 -20.720152 -37.781425 -17.50319 -22.628887 -26.29361 13.075766
1.392364 -0.70449835 -39.106052 -8.844497 -26.66963 -9.37811 -4.842142 -8.295277
-16.31139 -11.940922 -33.788673 -5.074132 11.835181 -44.32882 -37.017387 2.716148
-3.143334 -39.04966 -45.848385 2.6634452 1.2489655 -30.263159 -22.71441 -31.351948
-64.35399 -31.706781 12.898616 58.99604 17.41234 -25.14256 -4.005244 -29.539341
-14.784878 -36.14004 -40.30806 -41.884296 -36.0904 -0.030800698 -18.33101 -23.051184
-18.183956 -4.4248657 -36.865883 -28.232615 -12.386493 3.852869 -16.527073 14.274056
-25.82334 -19.332558 -12.574222 -18.519838 -19.166237 -20.551926 -1.2332615 -26.160995
00000000: 8c29 3fc2 ea55 3fc1 dfc2 a5c1 2e20 17c2
00000010: 8806 8cc1 f607 b5c1 5059 d2c1 5636 5141
00000020: fc38 b23f 015a 34bf 996c 1cc2 0f83 0dc1
00000030: 675b d5c1 bd0c 16c1 d4f2 9ac0 74b9 04c1
00000040: ba7d 82c1 040e 3fc1 9a27 07c2 4a5f a2c0
00000050: e75c 3d41 b650 31c2 ce11 14c2 5ed5 2d40
00000060: 622c 49c0 da32 1cc2 bf64 37c2 e375 2a40
00000070: 1ade 9f3f f31a f2c1 1db7 b5c1 cad0 fac1
00000080: 3eb5 80c2 7da7 fdc1 bb60 4e41 f2fb 6b42
00000090: 794c 8b41 f623 c9c1 f52a 80c0 9250 ecc1
000000a0: dc8e 6cc1 678f 10c2 743b 21c2 8589 27c2
000000b0: 925c 10c2 bf51 fcbc e9a5 92c1 d368 b8c1
000000c0: be78 91c1 8098 8dc0 aa76 13c2 65dc e1c1
000000d0: 132f 46c1 6895 7640 7237 84c1 8962 6441
000000e0: 3396 cec1 14a9 9ac1 0330 49c1 a128 94c1
000000f0: 7454 99c1 586a a4c1 83db 9dbf b849 d1c1

running_var f4 [64]
533.55975 1525.0599 678.06775 1034.3993 600.48517 1227.097 1093.8375 677.86707
552.97406 740.65436 606.69995 679.8425 899.302 1238.4478 531.98895 704.967
596.1733 649.55634 991.213 674.46985 809.26227 3189.1433 1121.5842 751.5813
670.41876 1944.6149 1469.4122 1169.5961 941.5555 1654.4641 771.14435 899.8354
1130.4829 685.14825 1116.1327 1248.7056 976.05676 494.71066 1215.6239 1346.6506
743.91406 3322.1853 1770.7611 664.92395 1876.5673 957.5196 759.1192 3599.094
585.4149 812.61926 2973.1213 664.3666 1826.9216 1068.0312 682.60724 1358.9097
810.41376 732.87756 590.7357 1130.2457 881.2483 862.8271 811.7638 731.32556
00000000: d363 0544 eba1 be44 5684 2944 c74c 8144
00000010: 0d1f 1644 1b63 9944 cdba 8844 7e77 2944
00000020: 573e 0a44 e129 3944 ccac 1744 ecf5 2944
00000030: 54d3 6044 54ce 9a44 4bff 0444 e33d 3044
00000040: 170b 1544 9b63 2244 a2cd 7744 129e 2844
00000050: c950 4a44 4b52 4745 b232 8c44 34e5 3b44
00000060: cd9a 2744 ad13 f344 31ad b744 1333 9244
00000070: 8d63 6b44 dace ce44 3dc9 4044 77f5 6044
00000080: 744f 8d44 7d49 2b44 3f84 8b44 9416 9c44
00000090: a203 7444 f75a f743 f7f3 9744 d254 a844
000000a0: 80fa 3944 f7a2 4f45 5b58 dd44 223b 2644
000000b0: 2792 ea44 4161 6f44 a1c7 3d44 81f1 6045
000000c0: 8e5a 1244 a227 4b44 f1d1 3945 7617 2644
000000d0: 7e5d e444 0081 8544 dda6 2a44 1cdd a944
000000e0: 7b9a 4a44 2a38 3744 16af 1344 dd47 8d44
000000f0: e44f 5c44 efb4 5744 e2f0 4a44 d6d4 3644

weight f4 [64, 64, 3, 3]
-0.6674931 -0.65918654 1.0133837 -0.6112024 1.1696119 2.20925 1.4411424 0.34235227
-0.4784061 0.5149263 -0.47951856 0.68392706 -1.6229526 -1.7025874 -0.42593127 1.2671297
-2.4176154 -0.90507126 0.8036395 1.9252969 -0.35485938 -0.16008367 1.9910994 1.1726048
0.28269535 -1.0564626 1.0066516 0.7173208 -0.8358711 2.1635444 -0.60451895 0.23949303
-0.46731526 0.45499185 -0.8026605 0.3158628 0.490641 -2.1461265 1.8549057 1.7406745
-0.3064523 -1.3733394 -0.79554856 -1.7139051 2.124731 1.0820998 0.089390375 -1.0796592
0.5365539 0.6462025 -4.3109994 -0.14284645 -1.0789436 -2.1394117 1.9591104 0.7203879
-0.9833118 -1.1008571 -2.690608 0.07132771 1.1874187 -0.5105829 0.50635695 0.34649575
1.1471182 0.62236977 -0.49544048 -0.759803 -0.44086054 1.2749976 1.7907339 -1.3032966
1.2190187 -1.6322355 -0.7169775 1.371571 0.7133595 -1.2930334 -0.7973131 0.53562546
0.52664137 2.4485726 -0.68245137 3.066943 0.12549306 -1.5839434 -1.4355837 1.8983549
2.0116074 0.45288712 0.40353522 2.005553 0.6371656 -2.8256304 -1.0200058 0.21329813
-0.12442786 -0.054741804 -2.7360835 0.87126523 0.14662197 0.4759298 0.21586323 1.4078681
-2.0523863 -1.5605823 -1.9927862 0.6010204 1.916141 1.332252 0.063932456 -3.1092093
0.9601263 -0.8405248 -1.323731 -3.2375686 -2.1904275 0.47950697 2.215232 0.47639465
0.8933844 -0.86924225 -1.4249439 -1.5539157 -1.626054 1.3653345 -0.38269445 0.344727
1.2013465 0.7253618 2.3616462 0.13565171 0.39607063 -2.988332 -0.65885997 -1.0894473
-0.9917832 -0.86684114 -0.6575929 -1.6096244 -0.828611 2.2590346 -0.7724461 -2.9022884
-0.7048142 1.8899868 0.50527275 0.7198401 -1.1511911 -1.03775 -0.5740393 -0.8793063
-2.4023144 -1.410052 -2.032652 -0.7895311 0.44306535 -0.10810838 0.8620229 1.4816724
-2.9399242 -0.4928324 0.3113129 -1.5794984 -1.1837656 -0.91281307 -1.3853961 -0.15118061
0.29583007 0.24547188 -0.35279286 -1.7913747 -0.72460353 -0.15783158 -1.4683267 -1.1337327
-0.7766482 -2.2764442 -1.7588481 1.1171641 -1.938887 -0.039413515 1.8427749 0.99629
0.40038264 -0.28552347 -0.92931265 -1.9451318 1.8391857 -0.7656119 -0.63041866 -3.2758188
-1.9498394 0.3481335 1.0299591 -2.2371764 -3.50575 -0.87238586 -0.60309756 1.5101466
0.075099446 2.1176264 -0.74733764 -3.1519752 1.7828714 -0.51614124 -2.0455787 0.26266944
-2.6569896 0.3580747 -1.6731207 -0.915236 1.7962649 -0.3515646 -1.8642997 -0.29201436
-2.5841336 0.80034107 2.263909 -2.4374747 -0.6913428 -1.6150105 2.145153 0.62780666
-1.312215 -0.5522927 0.15642212 -0.15723607 -0.071265645 0.6010791 -0.95702094 0.03338332
-1.132614 -0.083609045 -1.7388395 0.9585632 -1.5413702 1.1754057 -1.0210534 -1.982491
-1.7310412 -1.137442 0.67001045 -0.6067522 -0.6980863 -0.6625849 -1.0626874 -0.016986825
1.6802807 -3.5544703 1.3792843 0.32268345 -1.5464503 2.0895677 1.07834 0.2800788
00000000: d4e0 2abf 73c0 28bf 8fb6 813f c377 1cbf
00000010: d8b5 953f 5a64 0d40 5b77 b83f cc48 af3e
00000020: a5f1 f4be 36d2 033f 7583 f5be d815 2f3f
00000030: e9bc cfbf 62ee d9bf aa13 dabe 4e31 a23f
00000040: 36ba 1ac0 c0b2 67bf 51bb 4d3f 2170 f63f
00000050: 21b0 b5be f9ec 23be 58dc fe3f ea17 963f
00000060: 72bd 903e 2b3a 87bf f6d9 803f 56a2 373f
00000070: a6fb 55bf 8377 0a40 c1c1 1abf a93d 753e
00000080: f243 efbe b1f4 e83e 297b 4dbf c5b8 a13e
00000090: 4c35 fb3e 235a 09c0 8d6d ed3f 6cce de3f
000000a0: 51e7 9cbe 96c9 afbf 12a9 4bbf 3e61 dbbf
000000b0: 98fb 0740 3f82 8a3f 4d12 b73d 4632 8abf
000000c0: 995b 093f 876d 253f b5f3 89c0 5746 12be
000000d0: d31a 8abf 1fec 08c0 21c4 fa3f 576b 383f
000000e0: 52ba 7bbf e3e8 8cbf ec32 2cc0 4314 923d
000000f0: 56fd 973f 90b5 02bf 9ca0 013f e467 b13e
00000100: c5d4 923f a053 1f3f 60aa fdbe 7382 42bf
00000110: 79b8 e1be 1f33 a33f c536 e53f 6cd2 a6bf
00000120: ce08 9c3f 18ed d0bf d68b 37bf a38f af3f
00000130: ba9e 363f 1e82 a5bf b61c 4cbf c01e 093f
00000140: f8d1 063f 6ab5 1c40 22b5 2ebf cb48 4440
00000150: 4181 003e a8be cabf 35c1 b7bf 4bfd f23f
00000160: 2dbe 0040 d2e0 e73e 2b9c ce3e fb5a 0040
00000170: 491d 233f 21d7 34c0 8d8f 82bf d36a 5a3e
00000180: 09d4 febd f138 60bd fe1b 2fc0 3d0b 5f3f
00000190: 1224 163e 12ad f33e 400b 5d3e 0635 b43f
000001a0: 4c5a 03c0 29c1 c7bf 9e13 ffbf 79dc 193f
000001b0: 1c44 f53f 3c87 aa3f 05ef 823d 49fd 46c0
000001c0: d6ca 753f a22c 57bf 0470 a9bf 5334 4fc0
000001d0: f72f 0cc0 f081 f53e 5cc6 0d40 00ea f33e
000001e0: d7b4 643f a986 5ebf 9064 b6bf b6e6 c6bf
000001f0: 8a22 d0bf 48c3 ae3f 87f0 c3be 0f80 b03e
00000200: b9c5 993f 50b1 393f 3625 1740 48e8 0a3e
00000210: c5c9 ca3e d540 3fc0 0cab 28bf 0273 8bbf
00000220: 81e5 7dbf 4de9 5dbf 0258 28bf 2c08 cebf
00000230: da1f 54bf 0694 1040 07bf 45bf 18bf 39c0
00000240: b46e 34bf 16eb f13f 8e59 013f 7147 383f
00000250: 3b5a 93bf fed4 84bf 3df4 12bf 381a 61bf
00000260: 85bf 19c0 957c b4bf f816 02c0 b61e 4abf
00000270: 76d9 e23e ed67 ddbd 88ad 5c3f 71a7 bd3f
00000280: b827 3cc0 8754 fcbe 6864 9f3e 012d cabf
00000290: a285 97bf 1eae 69bf a954 b1bf 17cf 1abe
000002a0: 0a77 973e fb5c 7b3e 44a1 b4be c44b e5bf
000002b0: 9e7f 39bf 9a9e 21be 21f2 bbbf 271e 91bf
000002c0: 6bd2 46bf 43b1 11c0 ef21 e1bf 3cff 8e3f
000002d0: 732d f8bf 1170 21bd 0ce0 eb3f dd0c 7f3f
000002e0: f4fe cc3e 2230 92be 6fe7 6dbf 14fa f8bf
000002f0: 706a eb3f 24ff 43bf 1e63 21bf 04a7 51c0
00000300: 5694 f9bf 8e3e b23e b3d5 833f e62d 0fc0
00000310: 355e 60c0 ae54 5fbf 9a64 1abf 7c4c c13f
00000320: bdcd 993d 3187 0740 8551 3fbf f6b9 49c0
00000330: 2135 e43f d521 04bf c3ea 02c0 9c7c 863e
00000340: 1e0c 2ac0 9155 b73e d228 d6bf e84c 6abf
00000350: 02ec e53f 4600 b4be 5fa1 eebf e882 95be
00000360: 7262 25c0 27e3 4c3f e3e3 1040 96ff 1bc0
00000370: d7fb 30bf aab8 cebf 304a 0940 f0b7 203f
00000380: a9f6 a7bf 0e63 0dbf 1f2d 203e 7e02 21be
00000390: b9f3 91bd 52e0 193f 53ff 74bf f3bc 083d
000003a0: 7ff9 90bf 383b abbd 4b92 debf 6664 753f
000003b0: 9e4b c5bf b273 963f e1b1 82bf 44c2 fdbf
000003c0: c292 ddbf b397 91bf ce85 2b3f 1d54 1bbf
000003d0: c9b5 32bf 2a9f 29bf 2406 88bf f427 8bbc
000003e0: 7013 d73f 717c 63c0 638c b03f c436 a53e
000003f0: 15f2 c5bf 7abb 0540 0c07 8a3f 7d66 8f3e

weight f4 [64]
1.0925282 0.970086 0.37843227 1.1429367 0.4118017 1.320191 1.4452116 0.5396668
0.4675313 1.0004102 0.9180289 1.262256 1.158409 2.1602795 1.3331023 1.3336216
1.0908837 0.9833399 1.0908985 1.0427623 0.41578016 0.79996204 1.4214473 0.48426086
0.44252434 1.1034552 1.436909 1.4131689 0.49410293 1.0755103 1.391867 0.43419188
0.86284494 0.91435254 1.6514888 1.9519663 1.3294362 0.63861114 0.39442435 1.3044827
0.97321075 0.9522345 1.3482862 1.0282909 0.5316829 1.2972404 0.4763888 1.2937894
0.4643857 2.7415862 1.3646182 0.9302504 0.9667601 1.2088395 1.1344789 1.1642448
1.2874906 0.50528747 0.9062054 1.3959789 0.401744 1.1109929 0.8169324 0.88277537
00000000: f7d7 8b3f 8e57 783f e0c1 c13e c04b 923f
00000010: acd7 d23e 05fc a83f b2fc b83f 9a27 0a3f
00000020: 4360 ef3e 710d 803f f103 6b3f 9b91 a13f
00000030: bf46 943f 0542 0a40 19a3 aa3f 1db4 aa3f
00000040: 14a2 8b3f 2abc 7b3f 90a2 8b3f 3c79 853f
00000050: 23e1 d43e 50ca 4c3f fcf1 b53f 0af1 f73e
00000060: 8d92 e23e 053e 8d3f a2ec b73f b8e2 b43f
00000070: 0ffb fc3e 52aa 893f b328 b23f 664e de3e
00000080: 68e3 5c3f 0213 6a3f fc63 d33f 08da f93f
00000090: f72a aa3f 057c 233f fdf1 c93e 4af9 a63f
000000a0: 5724 793f a4c5 733f a494 ac3f 099f 833f
000000b0: 5f1c 083f f90b a63f 3ce9 f33e e49a a53f
000000c0: f6c3 ed3e 2676 2f40 cfab ae3f e424 6e3f
000000d0: 977d 773f 41bb 9a3f 9b36 913f f905 953f
000000e0: 7ecc a43f 855a 013f 14fd 673f 70af b23f
000000f0: 64b1 cd3e 0435 8e3f 7b22 513f 91fd 613f

bias f4 [64]
-1.9848334 -1.578171 -2.4091363 -1.8061973 -2.1502728 -0.7651346 -2.224392 -2.0295196
-2.9333262 -1.4629229 -4.0873485 -1.8637787 -1.9747523 -2.828402 -1.740104 -1.2399527
-1.4693959 -2.293524 -3.3465707 -2.0076725 -2.1426315 -1.7560223 -2.0148058 -2.1299658
-2.1285174 -1.7879035 -1.950604 -1.5403372 -2.1447568 -1.7332464 -1.8965153 -2.1688585
-2.280407 -3.1535232 -2.2890005 -0.6729495 -1.6171529 -3.831243 -2.2824185 -0.82127166
-2.542015 -2.5058904 1.062067 -2.8127956 -2.3501801 -1.0913085 -2.1539707 -1.9244472
-2.1238854 -3.5729318 -1.6758214 -3.6742375 -3.2443259 -0.20139855 -2.0085452 -2.240885
-0.79513144 -2.458855 -1.8572628 -0.533065 -2.1700277 -3.4812367 -2.8165364 -2.5076478
00000000: 050f febf 8201 cabf 4a2f 1ac0 7931 e7bf
00000010: 129e 09c0 dcdf 43bf 705c 0ec0 a6e3 01c0
00000020: 9ebb 3bc0 0f41 bbbf 8fcb 82c0 4d90 eebf
00000030: afc4 fcbf 8a04 35c0 babb debf c5b6 9ebf
00000040: 2a15 bcbf 19c9 12c0 372e 56c0 b57d 00c0
00000050: e020 09c0 57c5 e0bf 94f2 00c0 5c51 08c0
00000060: a139 08c0 06da e4bf 64ad f9bf c529 c5bf
00000070: b243 09c0 05db ddbf 03c1 f2bf 94ce 0ac0
00000080: 30f2 11c0 53d3 49c0 fc7e 12c0 6b46 2cbf
00000090: defe cebf 1633 75c0 2513 12c0 dc3e 52bf
000000a0: 60b0 22c0 8260 20c0 d0f1 873f d804 34c0
000000b0: 5a69 16c0 ffaf 8bbf a8da 09c0 4954 f6bf
000000c0: bded 07c0 eaaa 64c0 5181 d6bf b526 6bc0
000000d0: 09a3 4fc0 6c3b 4ebe 018c 00c0 a96a 0fc0
000000e0: bc8d 4bbf e15d 1dc0 caba edbf f376 08bf
000000f0: bce1 0ac0 95cc 5ec0 2242 34c0 4d7d 20c0

running_mean f4 [64]
-54.011982 -44.08587 1.1159219 -37.744938 -22.412245 -52.411686 -40.529476 -20.450037
-1.1563295 0.3014916 16.68893 -39.417385 -59.80687 -26.384756 -61.01309 -23.55847
-24.83098 -37.424416 -21.168354 -51.460323 -21.234768 -19.946764 -37.249523 -21.7254
-21.061762 -58.795853 -40.856693 -24.529362 -19.788439 -60.45856 -42.00408 -25.76038
-20.766964 8.463606 -22.56909 -14.272932 -56.236633 6.539482 -7.7927175 -18.839315
-19.86545 -16.639929 19.272696 -29.715733 -27.669195 -37.1676 -35.09788 -37.19756
-16.133848 -41.07705 -39.816788 11.533762 -10.727993 -15.698535 -57.635098 -39.680237
-7.260743 -27.254196 -38.967796 -35.553284 -19.268515 -19.172955 -26.133802 -18.472027
00000000: 450c 58c2 ee57 30c2 87d6 8e3f d1fa 16c2
00000010: 474c b3c1 91a5 51c2 2f1e 22c2 ad99 a3c1
00000020: 9b02 94bf 1b5d 9a3e ee82 8541 67ab 1dc2
00000030: 3c3a 6fc2 fb13 d3c1 670d 74c2 bf77 bcc1
00000040: d9a5 c6c1 9ab2 15c2 ca58 a9c1 5fd7 4dc2
00000050: cee0 a9c1 f992 9fc1 83ff 14c2 9fcd adc1
00000060: 7d7e a8c1 f42e 6bc2 416d 23c2 223c c4c1
00000070: b94e 9ec1 91d5 71c2 2e04 28c2 4215 cec1
00000080: be22 a6c1 ee6a 0741 7f8d b4c1 ee5d 64c1
00000090: 50f2 60c2 7043 d140 f15d f9c0 ebb6 96c1
000000a0: 71ec 9ec1 931e 85c1 7b2e 9a41 d2b9 edc1
000000b0: 835a ddc1 9fab 14c2 3b64 0cc2 4dca 14c2
000000c0: 1f12 81c1 e64e 24c2 6444 1fc2 4a8a 3841
000000d0: dca5 2bc1 332d 7bc1 578a 66c2 90b8 1ec2
000000e0: 0258 e8c0 9808 dac1 06df 1bc2 9036 0ec2
000000f0: eb25 9ac1 3662 99c1 0712 d1c1 b6c6 93c1

running_var f4 [64]
519.26355 732.0876 166.6855 512.2837 251.38133 2686.3525 952.3232 222.9984
253.66064 1543.5952 648.85785 749.5773 725.00366 323.2784 959.8638 1259.1559
430.27844 379.3569 626.9375 434.5949 200.98311 496.72388 801.95197 130.42508
252.9381 605.5222 810.28345 376.9118 172.67079 802.0953 672.1688 186.45883
422.4313 673.025 523.8261 2869.6047 951.6693 374.73648 115.542915 993.67554
380.92932 268.02374 902.41034 556.7993 381.72348 1017.2199 235.098 713.6105
150.1362 822.7205 892.4331 305.44928 495.59015 1975.9633 577.67883 490.55338
1871.6313 372.75604 615.3799 817.82666 217.77202 889.09174 397.59274 740.43604
00000000: ded0 0144 9b05 3744 7daf 2643 2812 0044
00000010: 9f61 7b43 a4e5 2745 af14 6e44 97ff 5e43
00000020: 20a9 7d43 0cf3 c044 e736 2244 f264 3b44
00000030: 3c40 3544 a3a3 a143 48f7 6f44 fd64 9d44
00000040: a423 d743 afad bd43 00bc 1c44 264c d943
00000050: adfb 4843 a85c f843 ed7c 4844 d26c 0243
00000060: 27f0 7c43 6c61 1744 2492 4a44 b674 bc43
00000070: b9ab 2c43 1986 4844 ce0a 2844 7675 3a43
00000080: 3537 d343 9a41 2844 dff4 0244 ad59 3345
00000090: d6ea 6d44 455e bb43 f915 e742 3c6b 7844
000000a0: f476 be43 0a03 8643 439a 6144 2833 0b44
000000b0: 9bdc be43 134e 7e44 1719 6b43 1267 3244
000000c0: de22 1643 1dae 4d44 b81b 5f44 82b9 9843
000000d0: 8acb f743 d3fe f644 726b 1044 d546 f543
000000e0: 34f4 e944 c660 ba43 50d8 1944 e874 4c44
000000f0: a3c5 5943 df45 5e44 dfcb c643 e81b 3944

weight f4 [2, 64, 1, 1]
-11.165476 -0.0748579 4.8763986 -6.560886 -2.2879632 0.0013154396 -8.473082 2.9947205
2.8742056 2.5799959 7.813085 -4.1230273 -8.087998 -0.058964007 -7.651723 -6.4095554
-0.23133014 -11.657483 -0.1838971 -6.711083 -5.9577436 2.5168836 -6.4555106 -1.7558464
1.8920784 -10.181023 0.04174003 0.22544368 3.2592032 -7.1945877 -4.8830256 0.8304322
-4.8145986 0.9460759 -5.111696 -3.2337651 -6.379079 7.852832 4.8847914 -0.25927544
-6.919849 -9.585317 0.51058966 4.173871 -6.132384 0.67887074 -3.1111233 -8.020981
2.526534 -4.756901 -6.075777 -3.041813 7.626905 -3.9402835 -9.722761 -6.892369
-4.4083405 -3.7642248 -0.23244846 0.59845394 2.060223 6.811327 6.9827523 4.77708
-5.612918 -2.7985835 -1.4348377 -7.0792885 -4.474556 2.6989255 -6.7352023 -3.529127
7.2851067 0.92848825 7.408772 -6.285962 -5.0623975 -0.044765767 -4.971752 0.40662667
0.6451375 -8.673268 10.562215 -1.6795186 -4.59095 -2.504895 -8.068674 -4.145803
-2.430424 -4.300645 -6.1703978 -0.043804497 -3.5326228 -6.2471533 -6.1580706 -4.431785
-6.20422 13.724849 -7.3097672 0.32577738 -5.8730297 7.885335 -2.9330935 0.75819355
-7.670032 -10.2239 0.17427784 -1.9443691 -6.5445776 -0.3644557 -5.3368 -6.8081326
-2.3091133 -8.133576 -8.086282 14.547039 13.319176 0.2828295 -11.218497 -7.44399
-0.37786272 -4.6084647 -7.998465 -0.06383644 -2.3787313 6.483892 -5.866276 -4.6646233
00000000: caa5 32c1 194f 99bd 750b 9c40 c7f2 d1c0
00000010: fd6d 12c0 d46a ac3a be91 07c1 80a9 3f40
00000020: fcf2 3740 a71e 2540 cb04 fa40 d7ef 83c0
00000030: 7168 01c1 3e84 71bd eada f4c0 141b cdc0
00000040: cfe1 6cbe 0d85 3ac1 854f 3cbe 31c1 d6c0
00000050: d6a5 bec0 9f14 2140 8b93 cec0 93bf e0bf
00000060: a02f f23f 78e5 22c1 98f7 2a3d b5da 663e
00000070: c996 5040 103a e6c0 bf41 9cc0 3497 543f
00000080: 3111 9ac0 0832 723f 0393 a3c0 02f6 4ec0
00000090: 6a21 ccc0 664a fb40 3650 9c40 c0bf 84be
000000a0: 676f ddc0 755d 19c1 01b6 023f 5a90 8540
000000b0: 7d3c c4c0 79ca 2d3f a51c 47c0 f055 00c1
000000c0: bcb2 2140 8838 98c0 c46c c2c0 10ad 42c0
000000d0: 9b0f f440 9b2d 7cc0 6e90 1bc1 498e dcc0
000000e0: 2011 8dc0 0fe9 70c0 f806 6ebe 4734 193f
000000f0: b2da 0340 64f6 d940 b572 df40 d7dd 9840
00000100: 069d b3c0 fe1b 33c0 c3a8 b7bf 8889 e2c0
00000110: 902f 8fc0 32bb 2c40 c786 d7c0 37dd 61c0
00000120: 981f e940 68b1 6d3f a914 ed40 9a26 c9c0
00000130: 29ff a1c0 4f5c 37bd 9818 9fc0 5f31 d03e
00000140: bb27 253f b5c5 0ac1 d5fe 2841 77fa d6bf
00000150: 10e9 92c0 3350 20c0 4a19 01c1 6baa 84c0
00000160: 118c 1bc0 e29e 89c0 e673 c5c0 586c 33bd
00000170: 7e16 62c0 aee8 c7c0 ea0e c5c0 2fd1 8dc0
00000180: f888 c6c0 fb98 5b41 9de9 e9c0 4bcc a63e
00000190: dcef bbc0 aa54 fc40 ceb7 3bc0 f918 423f
000001a0: e770 f5c0 1895 23c1 e475 323e 16e1 f8bf
000001b0: 2e6d d1c0 f099 babe 11c7 aac0 39dc d9c0
000001c0: 83c8 13c0 2123 02c1 6961 01c1 acc0 6841
000001d0: 581b 5541 07cf 903e f77e 33c1 2b35 eec0
000001e0: 3977 c1be 8b78 93c0 6df3 ffc0 aebc 82bd
000001f0: 223d 18c0 0b7c cf40 88b8 bbc0 9844 95c0

weight f4 [2]
2.4996817 1.731386
00000000: c9fa 1f40 0e9e dd3f

bias f4 [2]
-1.9432713 -0.65191084
00000000: 1dbd f8bf a1e3 26bf

running_mean f4 [2]
-11.325093 -7.2915683
00000000: 9533 35c1 8754 e9c0

running_var f4 [2]
197.05208 255.00424
00000000: 550d 4543 1601 7f43
